…
    "outputId": "fed6d8b1-9649-4529-dbb1-a3483591818d"
   },
   "outputs": [
    {
     "name": "stdout",
     "output_type": "stream",
     "text": [
      "Model: \"vgg19\"\n",
      "_________________________________________________________________\n",
      "Layer (type)                 Output Shape              Param #   \n",
      "=================================================================\n",
      "input_1 (InputLayer)         [(None, 48, 48, 3)]       0         \n",
      "_________________________________________________________________\n",
      "block1_conv1 (Conv2D)        (None, 48, 48, 64)        1792      \n",
      "_________________________________________________________________\n",
      "block1_conv2 (Conv2D)        (None, 48, 48, 64)        36928     \n",
      "_________________________________________________________________\n",
      "block1_pool (MaxPooling2D)   (None, 24, 24, 64)        0         \n",
      "_________________________________________________________________\n",
      "block2_conv1 (Conv2D)        (None, 24, 24, 128)       73856     \n",
      "_________________________________________________________________\n",
      "block2_conv2 (Conv2D)        (None, 24, 24, 128)       147584    \n",
      "_________________________________________________________________\n",
      "block2_pool (MaxPooling2D)   (None, 12, 12, 128)       0         \n",
      "_________________________________________________________________\n",
      "block3_conv1 (Conv2D)        (None, 12, 12, 256)       295168    \n",
      "_________________________________________________________________\n",
      "block3_conv2 (Conv2D)        (None, 12, 12, 256)       590080    \n",
      "_________________________________________________________________\n",
      "block3_conv3 (Conv2D)        (None, 12, 12, 256)       590080    \n",
      "_________________________________________________________________\n",
      "block3_conv4 (Conv2D)        (None, 12, 12, 256)       590080    \n",
      "_________________________________________________________________\n",
      "block3_pool (MaxPooling2D)   (None, 6, 6, 256)         0         \n",
      "_________________________________________________________________\n",
      "block4_conv1 (Conv2D)        (None, 6, 6, 512)         1180160   \n",
      "_________________________________________________________________\n",
      "block4_conv2 (Conv2D)        (None, 6, 6, 512)         2359808   \n",
      "_________________________________________________________________\n",
      "block4_conv3 (Conv2D)        (None, 6, 6, 512)         2359808   \n",
      "_________________________________________________________________\n",
      "block4_conv4 (Conv2D)        (None, 6, 6, 512)         2359808   \n",
      "_________________________________________________________________\n",
      "block4_pool (MaxPooling2D)   (None, 3, 3, 512)         0         \n",
      "_________________________________________________________________\n",
      "block5_conv1 (Conv2D)        (None, 3, 3, 512)         2359808   \n",
      "_________________________________________________________________\n",
      "block5_conv2 (Conv2D)        (None, 3, 3, 512)         2359808   \n",
      "_________________________________________________________________\n",
      "block5_conv3 (Conv2D)        (None, 3, 3, 512)         2359808   \n",
      "_________________________________________________________________\n",
      "block5_conv4 (Conv2D)        (None, 3, 3, 512)         2359808   \n",
      "_________________________________________________________________\n",
      "block5_pool (MaxPooling2D)   (None, 1, 1, 512)         0         \n",
      "=================================================================\n",
      "Total params: 20,024,384\n",
      "Trainable params: 20,024,384\n",
      "Non-trainable params: 0\n",
      "_________________________________________________________________\n",
      "None\n"
     ]
    }
   ],
   "source": [
    "print(vgg19.summary())\n",
    "# Son satr MaxPooling2D bundan sonra fuly con layers flatten dense olmalyd .include_top = False bunlar kartr.\n",
…
   "cell_type": "code",
   "execution_count": 15,
   "metadata": {
    "colab": {
     "base_uri": "https://localhost:8080/"
    },
    "id": "p3xIcaF4oF3t",
    "outputId": "890f835a-01fb-4c1b-ac3f-a9bf5ba0fbac"
   },
   "outputs": [
    {
     "name": "stdout",
     "output_type": "stream",
     "text": [
      "Model: \"sequential\"\n",
      "_________________________________________________________________\n",
      "Layer (type)                 Output Shape              Param #   \n",
      "=================================================================\n",
      "block1_conv1 (Conv2D)        (None, 48, 48, 64)        1792      \n",
      "_________________________________________________________________\n",
      "block1_conv2 (Conv2D)        (None, 48, 48, 64)        36928     \n",
      "_________________________________________________________________\n",
      "block1_pool (MaxPooling2D)   (None, 24, 24, 64)        0         \n",
      "_________________________________________________________________\n",
      "block2_conv1 (Conv2D)        (None, 24, 24, 128)       73856     \n",
      "_________________________________________________________________\n",
      "block2_conv2 (Conv2D)        (None, 24, 24, 128)       147584    \n",
      "_________________________________________________________________\n",
      "block2_pool (MaxPooling2D)   (None, 12, 12, 128)       0         \n",
      "_________________________________________________________________\n",
      "block3_conv1 (Conv2D)        (None, 12, 12, 256)       295168    \n",
      "_________________________________________________________________\n",
      "block3_conv2 (Conv2D)        (None, 12, 12, 256)       590080    \n",
      "_________________________________________________________________\n",
      "block3_conv3 (Conv2D)        (None, 12, 12, 256)       590080    \n",
      "_________________________________________________________________\n",
      "block3_conv4 (Conv2D)        (None, 12, 12, 256)       590080    \n",
      "_________________________________________________________________\n",
      "block3_pool (MaxPooling2D)   (None, 6, 6, 256)         0         \n",
      "_________________________________________________________________\n",
      "block4_conv1 (Conv2D)        (None, 6, 6, 512)         1180160   \n",
      "_________________________________________________________________\n",
      "block4_conv2 (Conv2D)        (None, 6, 6, 512)         2359808   \n",
      "_________________________________________________________________\n",
      "block4_conv3 (Conv2D)        (None, 6, 6, 512)         2359808   \n",
      "_________________________________________________________________\n",
      "block4_conv4 (Conv2D)        (None, 6, 6, 512)         2359808   \n",
      "_________________________________________________________________\n",
      "block4_pool (MaxPooling2D)   (None, 3, 3, 512)         0         \n",
      "_________________________________________________________________\n",
      "block5_conv1 (Conv2D)        (None, 3, 3, 512)         2359808   \n",
      "_________________________________________________________________\n",
      "block5_conv2 (Conv2D)        (None, 3, 3, 512)         2359808   \n",
      "_________________________________________________________________\n",
      "block5_conv3 (Conv2D)        (None, 3, 3, 512)         2359808   \n",
      "_________________________________________________________________\n",
      "block5_conv4 (Conv2D)        (None, 3, 3, 512)         2359808   \n",
      "_________________________________________________________________\n",
      "block5_pool (MaxPooling2D)   (None, 1, 1, 512)         0         \n",
      "_________________________________________________________________\n",
      "flatten (Flatten)            (None, 512)               0         \n",
      "_________________________________________________________________\n",
      "dense (Dense)                (None, 1024)              525312    \n",
      "_________________________________________________________________\n",
      "dense_1 (Dense)              (None, 2000)              2050000   \n",
      "=================================================================\n",
      "Total params: 22,599,696\n",
      "Trainable params: 2,575,312\n",
      "Non-trainable params: 20,024,384\n",
      "_________________________________________________________________\n",
      "None\n"
     ]
    }
   ],
   "source": [
    "#fuly con layers\n",
    "model.add(Flatten())\n",
    "model.add(Dense(1024))\n",
…
